Model/anfis_model.pt (torch, 57286 bytes, 11 tensors)

_mu f4 [1, 7]
-1.2120711 -0.56039304 -0.33898792 0.20164849 0.5639905 0.80501163 0.97875184
00000000: 2525 9bbf eb75 0fbf d38f adbe f17c 4e3e
00000010: ae61 103f 3e15 4e3f 7b8f 7a3f

_sigma f4 [1, 7]
0.64034337 0.6405017 0.70417106 0.5191729 0.7514008 0.85499096 0.66475856
00000000: 8bed 233f ebf7 233f 8e44 343f 84e8 043f
00000010: ce5b 403f b0e0 5a3f 9e2d 2a3f

_c f4 [1, 7]
-1.1517804 -0.7863107 -0.46719927 -0.10341878 0.5752606 0.94397014 1.2239125
00000000: 8a6d 93bf a84b 49bf be34 efbe 3acd d3bd
00000010: 4744 133f 07a8 713f 2aa9 9c3f

_a f4 [1, 7]
2.0 2.0 2.0 2.0 2.0 2.0 2.0
00000000: 0000 0040 0000 0040 0000 0040 0000 0040
00000010: 0000 0040 0000 0040 0000 0040

_b f4 [1, 7]
3.0 3.0 3.0 3.0 3.0 3.0 3.0
00000000: 0000 4040 0000 4040 0000 4040 0000 4040
00000010: 0000 4040 0000 4040 0000 4040

_mu f4 [1, 7]
-1.2206651 -0.59057057 -0.44131762 0.08680516 0.43969637 0.8279388 1.1285065
00000000: c13e 9cbf a22f 17bf 62f4 e1be e7c6 b13d
00000010: e21f e13e ccf3 533f e772 903f

_sigma f4 [1, 7]
0.58120435 0.4989672 0.54646343 0.72409075 0.64384514 0.67072904 0.7498425
00000000: cfc9 143f a178 ff3e 07e5 0b3f 035e 393f
00000010: 09d3 243f e6b4 2b3f aef5 3f3f

_c f4 [1, 7]
-1.2086648 -0.8761466 -0.4327518 -0.36613578 0.22729695 0.9382028 1.3168488
00000000: 87b5 9abf 254b 60bf a591 ddbe 2676 bbbe
00000010: 88c0 683e 0f2e 703f 808e a83f

_gamma f4 [1, 7]
-3.2417147 -2.3058605 -1.3490379 0.056767717 1.0700139 2.34302 3.39712
00000000: 4178 4fc0 3893 13c0 46ad acbf 4485 683d
00000010: 37f6 883f 0af4 1540 6a6a 5940

_weight f4 [4, 2401]
-0.05864852 0.36852443 0.29587233 0.4096711 -0.17401543 -0.27101564 0.6107342 0.60237366
0.54516274 -0.08391581 -0.11048095 0.26169416 -0.26265755 0.40791005 0.48840007 0.42540485
0.13199982 0.029489068 0.56821275 0.38726687 -0.33456337 -0.016281372 0.021756683 0.50544226
0.53509194 0.6847912 0.51013386 -0.16153492 0.0124129765 -0.14697346 -0.16010731 -0.18402402
0.15131858 -0.036962803 0.5282438 -0.23277484 -0.15669407 -0.30265802 0.53500855 -0.28635785
0.4009833 0.16381222 -0.32651937 0.35111582 0.31104428 0.55835694 -0.31763977 0.21873938
0.023348581 0.46633622 0.5048315 0.443884 -0.11721799 -0.100822434 0.14439723 0.5570118
0.24402452 0.07178167 0.17402133 -0.11239041 0.43745145 0.23643918 0.06762513 -0.31216976
0.46752414 -0.26870438 0.0911897 0.6552492 -0.04535101 -0.15850228 0.083195664 0.43097615
-0.23060292 -0.0773857 -0.017996877 -0.17645966 0.5137615 0.44440377 -0.06817139 -0.049676925
0.26496938 0.21528365 0.26429352 -0.2958072 0.045810387 -0.03486078 -0.05461768 0.55145264
0.57294416 -0.19871312 -0.36833075 0.2246178 0.5508742 -0.043367192 0.3183227 0.03682619
-0.12066122 -0.16542166 -0.27249384 -0.2508557 -0.033644293 0.46131557 0.36440718 0.019832406
-0.13350746 -0.16192147 -0.22698756 0.5640681 0.6243795 -0.15023795 -0.38312903 0.22929089
-0.18565024 0.32635903 0.19418931 0.31444836 -0.16255079 -0.36866623 -0.0565454 -0.20832352
-0.09453879 0.1944261 0.3046658 0.3281508 -0.19046159 -0.2216245 -0.06216227 0.38510066
-0.33448339 -0.14789885 0.14443643 -0.38574335 0.19603555 -0.33950692 -0.24703886 -0.19537824
0.2871523 -0.28166997 -0.10537042 -0.030211227 -0.38772234 0.051251408 -0.38571987 -0.4091384
0.216568 -0.13396877 0.36572376 0.5555494 0.298041 0.3340813 0.33347172 0.47100303
0.039390184 0.5601467 -0.20905359 -0.19374695 -0.06128082 0.17421392 0.5061766 0.36777982
-0.24603885 0.13238238 -0.035528444 0.3406567 0.564261 -0.029615635 0.056654185 -0.100980215
0.42652336 -0.0074231215 0.062558055 0.14149065 -0.180184 0.5075173 -0.2690864 -0.049844436
0.011444876 -0.20243129 -0.1471203 0.11068351 0.15681687 -0.20296735 0.48177585 0.42416787
-0.24802808 -0.16201758 -0.25060153 0.12649228 0.187631 0.19571805 -0.2857125 0.38805422
0.21505597 -0.5035636 -0.002516025 -0.07319642 0.42270088 -0.2253003 -0.18742554 -0.3332877
-0.183861 0.4370196 0.46075588 0.32242686 0.049340546 -0.0063709076 -0.38156027 0.522047
-0.109398894 -0.45472366 -0.010130714 0.44343546 0.36011037 0.42774755 -0.27581978 -0.43805227
-0.1186104 0.07555583 -0.25042832 0.0008523158 0.0676907 -0.3113809 -0.29041216 0.43985415
-0.26317012 0.2720322 -0.07753524 -0.29235294 -0.1613485 -0.23213232 -0.31337863 0.47197628
-0.18050487 -0.30335787 0.20073317 0.30215466 -0.12184085 0.2089149 0.041897062 0.11312589
-0.2095949 0.30514845 0.10019665 -0.120125234 -0.23758517 0.1487175 0.5385818 -0.010298849
0.5507605 0.059640475 -0.349771 -0.08080196 0.1912487 0.3198659 -0.11260919 -0.19064856
00000000: 6e39 70bd 3caf bc3e 947c 973e 69c0 d13e
00000010: 1a31 32be 90c2 8abe 1459 1c3f 2935 1a3f
00000020: c98f 0b3f 0ddc abbd d643 e2bd c7fc 853e
00000030: 0d7b 86be 96d9 d03e 930f fa3e aace d93e
00000040: f62a 073e 0f93 f13c 6476 113f d847 c63e
00000050: e44b abbe 8360 85bc 123b b23c aa64 013f
00000060: c9fb 083f 7a4e 2f3f 2298 023f 6969 25be
00000070: cc5f 4b3c 3680 16be 2cf3 23be cb70 3cbe
00000080: 42f3 1a3e 4f66 17bd fc3a 073f 875c 6ebe
00000090: 6974 20be fef5 9abe 52f6 083f 7f9d 92be
000000a0: af4d cd3e 64be 273e 8c2d a7be 74c5 b33e
000000b0: 3241 9f3e 7bf0 0e3f aea1 a2be 37fd 5f3e
000000c0: 8645 bf3c 9fc3 ee3e a33c 013f c344 e33e
000000d0: fc0f f0bd fe7b cebd dedc 133e 5398 0e3f
000000e0: 90e1 793e 4502 933d a632 323e f12c e6bd
000000f0: a3f9 df3e 1d1d 723e 0b7f 8a3d b7d4 9fbe
00000100: 535f ef3e 9f93 89be aac1 ba3d 69be 273f
00000110: fbc1 39bd 6c4e 22be 7d62 aa3d e8a8 dc3e
00000120: 2c23 6cbe 657c 9ebd 306e 93bc d7b1 34be
00000130: e085 033f e488 e33e 719d 8bbd 087a 4bbd
00000140: 11aa 873e 5173 5c3e 7b51 873e 0b74 97be
00000150: aca3 3b3d 2dca 0ebd cab6 5fbd 002c 0d3f
00000160: 78ac 123f 747b 4bbe d995 bcbe 3502 663e
00000170: 1706 0d3f cca1 31bd 31fb a23e 0fd7 163d
00000180: 3b1d f7bd 4c64 29be 5084 8bbe 2970 80be
00000190: 99ce 09bd 8e31 ec3e 9493 ba3e 9277 a23c
000001a0: 2eb6 08be bece 25be 6d6f 68be c466 103f
000001b0: 56d7 1f3f fad7 19be 7d29 c4be 3bcb 6a3e
000001c0: 191b 3ebe 8818 a73e 90d9 463e 60ff a03e
000001d0: b773 26be d2c1 bcbe 269c 67bd c352 55be
000001e0: 8e9d c1bd a317 473e 28fd 9b3e 6203 a83e
000001f0: 5d08 43be 88f1 62be dd9d 7ebd ea2b c53e
00000200: 6841 abbe cc72 17be 25e7 133e 2780 c5be
00000210: 8bbd 483e dad3 adbe c1f7 7cbe 3c11 48be
00000220: a005 933e 0c37 90be 72cc d7bd 897d f7bc
00000230: 8b83 c6be ffec 513d 137d c5be 977a d1be
00000240: 00c4 5d3e 1c2f 09be 2540 bb3e 7c38 0e3f
00000250: d498 983e b40c ab3e cebc aa3e 4f27 f13e
00000260: 9a57 213d c665 0f3f 2512 56be 9a65 46be
00000270: 9901 7bbd 2265 323e ca94 013f a34d bc3e
00000280: 9cf1 7bbe 3f8f 073e 4686 11bd 8e6a ae3e
00000290: 6973 103f 7d9c f2bc 380e 683d b7ce cebd
000002a0: 4561 da3e a83d f3bb 701e 803d ede2 103e
000002b0: 2882 38be a7ec 013f b1c5 89be ae29 4cbd
000002c0: 4a83 3b3c 264a 4fbe b4a6 16be 09ae e23d
000002d0: 9a94 203e acd6 4fbe 53ab f63e 882c d93e
000002e0: 13fb 7dbe f0e7 25be d84e 80be 3187 013e
000002f0: 5722 403e 506a 483e e948 92be 0baf c63e
00000300: a237 5c3e 8be9 00bf e5e3 24bb 01e8 95bd
00000310: 406c d83e 1fb5 66be 7bec 3fbe afa4 aabe
00000320: 0f46 3cbe 08c1 df3e 32e8 eb3e 2215 a53e
00000330: 5019 4a3d 0cc3 d0bb de5b c3be dfa4 053f
00000340: 870c e0bd 8ad1 e8be 4bfb 25bc f909 e33e
00000350: 6360 b83e ba01 db3e 4038 8dbe 6348 e0be
00000360: 02ea f2bd 04bd 9a3d 2438 80be f26d 5f3a
00000370: 6ca1 8a3d 516d 9fbe e7b0 94be 9034 e13e
00000380: 3cbe 86be ce47 8b3e ccca 9ebd 49af 95be
00000390: 8b38 25be 18b4 6dbe 2a73 a0be e0a6 f13e
000003a0: 45d6 38be b951 9bbe ff8c 4d3e 04b4 9a3e
000003b0: b287 f9bd caed 553e 419c 2b3d 8cae e73d
000003c0: 0ca0 56be 6b3c 9c3e e733 cd3d 3804 f6bd
000003d0: 8749 73be 6649 183e 7fe0 093f 81bc 28bc
000003e0: a4fe 0c3f 9249 743d 2f15 b3be 7f7b a5bd
000003f0: b3d6 433e 77c5 a33e a69f e6bd 6039 43be

_bias f4 [1, 2401]
0.13919811 0.08534627 -0.5172383 0.13928588 0.0020011568 -0.55793226 -0.2061585 0.10189311
-0.026564248 -0.24241604 0.3228926 0.13076977 0.18323633 -0.49283126 -0.18714647 -0.57164776
-0.5807717 -0.32519054 -0.697391 0.2799491 -0.31344628 -0.16464156 -0.1838408 -0.33126917
0.11670919 -0.6613045 -0.6604147 -0.08902285 0.2026117 -0.28843984 -0.30072883 -0.4441296
0.2654215 0.15073137 0.3182838 -0.2791928 0.19501728 -0.4192087 0.17200896 -0.44068956
0.25130072 -0.23412047 0.1683441 -0.05067022 0.353997 -0.47982135 -0.4118574 0.05426267
0.22681893 -0.15133624 -0.06276993 0.340101 -0.6503863 -0.20000134 -0.57857805 -0.4623455
-0.3660428 0.0922014 0.31467316 -0.5135136 0.13718265 -0.48350987 -0.04497297 0.10654228
-0.64181906 -0.2541099 -0.32755607 -0.60564506 -0.46058688 -0.3751138 -0.22746605 0.004753807
0.09181287 0.24997547 0.24415779 0.2438004 -0.24362285 -0.36276996 0.3342606 0.1830687
-0.31864616 0.13474372 0.0035667713 -0.030895965 0.044738386 0.019270433 -0.46468225 0.21128726
-0.602664 0.09280277 -0.24269341 -0.11468885 -0.11744427 -0.3357185 0.026963517 -0.28505987
-0.13351734 -0.0469016 0.19502604 -0.45406228 -0.5583352 0.2368596 -0.26868916 -0.41497758
0.19586858 0.013757829 -0.0876587 -0.4311728 -0.09979997 -0.10205204 -0.56591403 0.35523626
0.19329198 -0.61088616 -0.5339594 -0.71052045 -0.69528323 -0.48640856 0.012986544 -0.5876007
-0.62929934 -0.3200669 -0.006265686 0.03199106 -0.19446962 -0.48107758 0.17612278 -0.17367688
0.25503695 -0.48557463 0.37317377 -0.21529171 -0.3568267 0.39921302 -0.2039945 -0.3702193
0.17605086 0.09698316 -0.5184457 -0.24756902 -0.20505123 -0.47485444 -0.041405447 -0.24326597
0.19342576 -0.33064464 -0.050134722 -0.41155624 0.2818015 -0.4846666 0.16093165 0.1907563
0.24351978 -0.058412187 -0.46654212 0.30147895 -0.3239062 -0.06132125 -0.42677742 0.04557642
-0.4894315 -0.28811258 -0.63765067 -0.16046353 0.25228134 -0.5527726 0.045530897 0.40447178
-0.31917006 0.02752508 -0.112387076 -0.5928087 0.34500426 -0.29810396 -0.062780194 -0.34796882
0.19744875 -0.34117216 -0.42366225 -0.11205525 -0.4587544 0.17737383 -0.27743343 0.32305717
-0.048701573 0.20163292 -0.36545917 -0.212972 -0.36919 0.06946183 -0.17426452 -0.31617132
-0.33149824 0.50308406 -0.0958185 -0.23466687 -0.34418648 -0.44113433 -0.235516 0.22508912
-0.4725755 -0.2646482 0.0089155035 0.08803558 -0.053973928 0.33148813 -0.32689655 -0.5278362
-0.20669208 -0.43528202 0.11082021 -0.1610585 0.24116386 -0.038022395 0.3702207 -0.39590034
-0.010365411 -0.15836146 -0.09438341 0.12562099 0.22842449 0.36402586 0.003080954 0.5717617
-0.1123606 0.041303128 0.47165805 0.27119133 0.16412032 0.18381523 0.31246933 -0.51160187
0.45686677 -0.06833411 -0.17706014 0.43204087 -0.069079965 -0.024377754 0.21225764 -0.36896035
0.5589302 -0.2909565 0.23783836 -0.26411366 -0.4479056 0.05586482 -0.44629538 -0.29646373
0.013487283 0.27302396 0.07611381 -0.19389802 -0.25667343 0.0004057499 0.43191063 -0.42810923
00000000: f389 0e3e 06ca ae3d bb69 04bf f5a0 0e3e
00000010: d725 033b a6d4 0ebf 371b 53be 56ad d03d
00000020: 449d d9bc e93b 78be 2e52 a53e 83e8 053e
00000030: 4ea2 3b3e 6154 fcbe 53a3 3fbe 8257 12bf
00000040: 74ad 14bf 607f a6be 3788 32bf 7d55 8f3e
00000050: 087c a0be cc97 28be c340 3cbe 1d9c a9be
00000060: 3a05 ef3d 404b 29bf f010 29bf 9d51 b6bd
00000070: 7179 4f3e 63ae 93be 21f9 99be f464 e3be
00000080: 54e5 873e 5359 1a3e 18f6 a23e 5cf2 8ebe
00000090: 9cb2 473e 86a2 d6be 1e23 303e 10a2 e1be
000000a0: 7daa 803e 47bd 6fbe 6562 2c3e 948b 4fbd
000000b0: 183f b53e 25ab f5be f9de d2be 8942 5e3d
000000c0: 3943 683e e3f7 1abe 858d 80bd b821 ae3e
000000d0: b77f 26bf 27cd 4cbe b11d 14bf 8db8 ecbe
000000e0: f669 bbbe 16d4 bc3d d71c a13e a175 03bf
000000f0: 9c79 0c3e 9b8e f7be 9435 38bd d732 da3d
00000100: 414e 24bf b11a 82be 6eb5 a7be 8e0b 1bbf
00000110: 0bd2 ebbe ea0e c0be dcec 68be d3c5 9b3b
00000120: 6308 bc3d 92f9 7f3e 8004 7a3e d0a6 793e
00000130: 4578 79be fcbc b9be 3524 ab3e 5c76 3b3e
00000140: 9725 a3be 42fa 093e 7ec0 693b 8919 fdbc
00000150: 993f 373d 07dd 9d3c d5ea edbe b05b 583e
00000160: 3048 1abf 610f be3d 9f84 78be fde1 eabd
00000170: 9f86 f0bd 4ce3 abbe 98e2 dc3c 5ef3 91be
00000180: c5b8 08be e41b 40bd e8b4 473e da7a e8be
00000190: 0eef 0ebf 538b 723e a091 89be f177 d4be
000001a0: c691 483e 8468 613c 6886 b3bd aec2 dcbe
000001b0: ed63 ccbd a900 d1bd bedf 10bf 87e1 b53e
000001c0: 55ee 453e 0963 1cbf 90b1 08bf abe4 35bf
000001d0: 15fe 31bf 8b0a f9be 83c5 543c 006d 16bf
000001e0: c319 21bf cfdf a3be 6250 cdbb 0f09 033d
000001f0: 0b23 47be cd4f f6be 8859 343e 5ad8 31be
00000200: 3494 823e 3d9d f8be a210 bf3e 6e75 5cbe
00000210: fdb1 b6be a665 cc3e efe3 50be 628d bdbe
00000220: ad46 343e 1b9f c63d dbb8 04bf bc82 7dbe
00000230: f3f8 51be 1f20 f3be c298 29bd b71a 79be
00000240: 6711 463e 414a a9be 115a 4dbd 80b7 d2be
00000250: 4948 903e 3826 f8be 44cb 243e 9f55 433e
00000260: 405d 793e 9e41 6fbd 9cde eebe 735b 9a3e
00000270: 09d7 a5be fe2b 7bbd 9282 dabe 57ae 3a3d
00000280: c496 fabe 7e83 93be 133d 23bf 8d50 24be
00000290: 052b 813e 8182 0dbf 9b7e 3a3d ed16 cf3e
000002a0: 426a a3be 477c e13c 322b e6bd 50c2 17bf
000002b0: 66a4 b03e 15a1 98be e792 80bd f828 b2be
000002c0: 0130 4a3e 1eae aebe 42ea d8be 397d e5bd
000002d0: dbe1 eabe 7ca1 353e c10b 8ebe c067 a53e
000002e0: 4d7b 47bd dc78 4e3e 771d bbbe 5515 5abe
000002f0: 7906 bdbe 0142 8e3d 6672 32be 35e1 a1be
00000300: 23ba a9be 1eca 003f 7d3c c4bd 834c 70be
00000310: 3639 b0be 5cdc e1be 1b2b 71be c37d 663e
00000320: 6af5 f1be f87f 87be 5512 123c 004c b43d
00000330: c413 5dbd d0b8 a93e fc5e a7be 4620 07bf
00000340: 17a7 53be 49dd debe b5f5 e23d 85ec 24be
00000350: a9f3 763e 5fbd 1bbd 918d bd3e 73b3 cabe
00000360: afd3 29bc 8229 22be 174c c1bd caa2 003e
00000370: 1ce8 693e 9961 ba3e d5e9 493b fa5e 123f
00000380: 501d e6bd 782d 293d 2a7d f13e 97d9 8a3e
00000390: 280f 283e 0f3a 3c3e fbfb 9f3e 57f8 02bf
000003a0: 71ea e93e c1f2 8bbd 414f 35be 7634 dd3e
000003b0: cc79 8dbd dbb3 c7bc 115a 593e 5fe8 bcbe
000003c0: 0d16 0f3f 40f8 94be e68b 733e e839 87be
000003d0: e253 e5be 82d2 643d d480 e4be 18ca 97be
000003e0: c4f9 5c3c ccc9 8b3e 8fe1 9b3d 348d 46be
000003f0: b36a 83be d4ba d439 6423 dd3e 2231 dbbe
